…
        "colab": {
          "base_uri": "https://localhost:8080/",
          "height": 1000
        }
      },
      "source": [
        "wgan = WGAN()"
      ],
      "execution_count": 0,
      "outputs": [
        {
          "output_type": "stream",
          "text": [
            "Model: \"sequential_2\"\n",
            "_________________________________________________________________\n",
            "Layer (type)                 Output Shape              Param #   \n",
            "=================================================================\n",
            "conv2d_7 (Conv2D)            (None, 16, 16, 16)        448       \n",
            "_________________________________________________________________\n",
            "leaky_re_lu_4 (LeakyReLU)    (None, 16, 16, 16)        0         \n",
            "_________________________________________________________________\n",
            "dropout_4 (Dropout)          (None, 16, 16, 16)        0         \n",
            "_________________________________________________________________\n",
            "conv2d_8 (Conv2D)            (None, 8, 8, 128)         18560     \n",
            "_________________________________________________________________\n",
            "zero_padding2d_1 (ZeroPaddin (None, 9, 9, 128)         0         \n",
            "_________________________________________________________________\n",
            "batch_normalization_5 (Batch (None, 9, 9, 128)         512       \n",
            "_________________________________________________________________\n",
            "leaky_re_lu_5 (LeakyReLU)    (None, 9, 9, 128)         0         \n",
            "_________________________________________________________________\n",
            "dropout_5 (Dropout)          (None, 9, 9, 128)         0         \n",
            "_________________________________________________________________\n",
            "conv2d_9 (Conv2D)            (None, 5, 5, 256)         295168    \n",
            "_________________________________________________________________\n",
            "batch_normalization_6 (Batch (None, 5, 5, 256)         1024      \n",
            "_________________________________________________________________\n",
            "leaky_re_lu_6 (LeakyReLU)    (None, 5, 5, 256)         0         \n",
            "_________________________________________________________________\n",
            "dropout_6 (Dropout)          (None, 5, 5, 256)         0         \n",
            "_________________________________________________________________\n",
            "conv2d_10 (Conv2D)           (None, 3, 3, 512)         1180160   \n",
            "_________________________________________________________________\n",
            "batch_normalization_7 (Batch (None, 3, 3, 512)         2048      \n",
            "_________________________________________________________________\n",
            "leaky_re_lu_7 (LeakyReLU)    (None, 3, 3, 512)         0         \n",
            "_________________________________________________________________\n",
            "dropout_7 (Dropout)          (None, 3, 3, 512)         0         \n",
            "_________________________________________________________________\n",
            "conv2d_11 (Conv2D)           (None, 3, 3, 1024)        4719616   \n",
            "_________________________________________________________________\n",
            "batch_normalization_8 (Batch (None, 3, 3, 1024)        4096      \n",
            "_________________________________________________________________\n",
            "leaky_re_lu_8 (LeakyReLU)    (None, 3, 3, 1024)        0         \n",
            "_________________________________________________________________\n",
            "conv2d_12 (Conv2D)           (None, 3, 3, 1024)        9438208   \n",
            "_________________________________________________________________\n",
            "batch_normalization_9 (Batch (None, 3, 3, 1024)        4096      \n",
            "_________________________________________________________________\n",
            "leaky_re_lu_9 (LeakyReLU)    (None, 3, 3, 1024)        0         \n",
            "_________________________________________________________________\n",
            "dropout_8 (Dropout)          (None, 3, 3, 1024)        0         \n",
            "_________________________________________________________________\n",
            "flatten_1 (Flatten)          (None, 9216)              0         \n",
            "_________________________________________________________________\n",
            "dense_2 (Dense)              (None, 1)                 9217      \n",
            "=================================================================\n",
            "Total params: 15,673,153\n",
            "Trainable params: 15,667,265\n",
            "Non-trainable params: 5,888\n",
            "_________________________________________________________________\n",
            "Model: \"sequential_3\"\n",
            "_________________________________________________________________\n",
            "Layer (type)                 Output Shape              Param #   \n",
            "=================================================================\n",
            "dense_3 (Dense)              (None, 65536)             6619136   \n",
            "_________________________________________________________________\n",
            "reshape_1 (Reshape)          (None, 8, 8, 1024)        0         \n",
            "_________________________________________________________________\n",
            "up_sampling2d_2 (UpSampling2 (None, 16, 16, 1024)      0         \n",
            "_________________________________________________________________\n",
            "conv2d_13 (Conv2D)           (None, 16, 16, 1024)      16778240  \n",
            "_________________________________________________________________\n",
            "batch_normalization_10 (Batc (None, 16, 16, 1024)      4096      \n",
            "_________________________________________________________________\n",
            "activation_3 (Activation)    (None, 16, 16, 1024)      0         \n",
            "_________________________________________________________________\n",
            "up_sampling2d_3 (UpSampling2 (None, 32, 32, 1024)      0         \n",
            "_________________________________________________________________\n",
            "conv2d_14 (Conv2D)           (None, 32, 32, 512)       8389120   \n",
            "_________________________________________________________________\n",
            "batch_normalization_11 (Batc (None, 32, 32, 512)       2048      \n",
            "_________________________________________________________________\n",
            "activation_4 (Activation)    (None, 32, 32, 512)       0         \n",
            "_________________________________________________________________\n",
            "conv2d_15 (Conv2D)           (None, 32, 32, 256)       2097408   \n",
            "_________________________________________________________________\n",
            "batch_normalization_12 (Batc (None, 32, 32, 256)       1024      \n",
            "_________________________________________________________________\n",
            "activation_5 (Activation)    (None, 32, 32, 256)       0         \n",
            "_________________________________________________________________\n",
            "conv2d_16 (Conv2D)           (None, 32, 32, 64)        262208    \n",
            "_________________________________________________________________\n",
            "batch_normalization_13 (Batc (None, 32, 32, 64)        256       \n",
            "_________________________________________________________________\n",
            "activation_6 (Activation)    (None, 32, 32, 64)        0         \n",
            "_________________________________________________________________\n",
            "conv2d_17 (Conv2D)           (None, 32, 32, 3)         3075      \n",
            "_________________________________________________________________\n",
            "activation_7 (Activation)    (None, 32, 32, 3)         0         \n",
            "=================================================================\n",
            "Total params: 34,156,611\n",
            "Trainable params: 34,152,899\n",
            "Non-trainable params: 3,712\n",
            "_________________________________________________________________\n"
          ],
          "name": "stdout"
        }
      ]
    },
    {
      "cell_type": "code",
…
