…
        "colab": {
          "base_uri": "https://localhost:8080/",
          "height": 1000
        }
      },
      "source": [
        "wgan = WGAN()"
      ],
      "execution_count": 0,
      "outputs": [
        {
          "output_type": "stream",
          "text": [
            "Model: \"sequential_20\"\n",
            "_________________________________________________________________\n",
            "Layer (type)                 Output Shape              Param #   \n",
            "=================================================================\n",
            "conv2d_66 (Conv2D)           (None, 14, 14, 16)        160       \n",
            "_________________________________________________________________\n",
            "leaky_re_lu_41 (LeakyReLU)   (None, 14, 14, 16)        0         \n",
            "_________________________________________________________________\n",
            "dropout_41 (Dropout)         (None, 14, 14, 16)        0         \n",
            "_________________________________________________________________\n",
            "conv2d_67 (Conv2D)           (None, 7, 7, 32)          4640      \n",
            "_________________________________________________________________\n",
            "zero_padding2d_10 (ZeroPaddi (None, 8, 8, 32)          0         \n",
            "_________________________________________________________________\n",
            "batch_normalization_46 (Batc (None, 8, 8, 32)          128       \n",
            "_________________________________________________________________\n",
            "leaky_re_lu_42 (LeakyReLU)   (None, 8, 8, 32)          0         \n",
            "_________________________________________________________________\n",
            "dropout_42 (Dropout)         (None, 8, 8, 32)          0         \n",
            "_________________________________________________________________\n",
            "conv2d_68 (Conv2D)           (None, 4, 4, 64)          18496     \n",
            "_________________________________________________________________\n",
            "batch_normalization_47 (Batc (None, 4, 4, 64)          256       \n",
            "_________________________________________________________________\n",
            "leaky_re_lu_43 (LeakyReLU)   (None, 4, 4, 64)          0         \n",
            "_________________________________________________________________\n",
            "dropout_43 (Dropout)         (None, 4, 4, 64)          0         \n",
            "_________________________________________________________________\n",
            "conv2d_69 (Conv2D)           (None, 4, 4, 128)         73856     \n",
            "_________________________________________________________________\n",
            "batch_normalization_48 (Batc (None, 4, 4, 128)         512       \n",
            "_________________________________________________________________\n",
            "leaky_re_lu_44 (LeakyReLU)   (None, 4, 4, 128)         0         \n",
            "_________________________________________________________________\n",
            "dropout_44 (Dropout)         (None, 4, 4, 128)         0         \n",
            "_________________________________________________________________\n",
            "flatten_10 (Flatten)         (None, 2048)              0         \n",
            "_________________________________________________________________\n",
            "dense_19 (Dense)             (None, 1)                 2049      \n",
            "=================================================================\n",
            "Total params: 100,097\n",
            "Trainable params: 99,649\n",
            "Non-trainable params: 448\n",
            "_________________________________________________________________\n",
            "Model: \"sequential_21\"\n",
            "_________________________________________________________________\n",
            "Layer (type)                 Output Shape              Param #   \n",
            "=================================================================\n",
            "dense_20 (Dense)             (None, 6272)              633472    \n",
            "_________________________________________________________________\n",
            "reshape_9 (Reshape)          (None, 7, 7, 128)         0         \n",
            "_________________________________________________________________\n",
            "up_sampling2d_16 (UpSampling (None, 14, 14, 128)       0         \n",
            "_________________________________________________________________\n",
            "conv2d_70 (Conv2D)           (None, 14, 14, 128)       262272    \n",
            "_________________________________________________________________\n",
            "batch_normalization_49 (Batc (None, 14, 14, 128)       512       \n",
            "_________________________________________________________________\n",
            "activation_24 (Activation)   (None, 14, 14, 128)       0         \n",
            "_________________________________________________________________\n",
            "up_sampling2d_17 (UpSampling (None, 28, 28, 128)       0         \n",
            "_________________________________________________________________\n",
            "conv2d_71 (Conv2D)           (None, 28, 28, 64)        131136    \n",
            "_________________________________________________________________\n",
            "batch_normalization_50 (Batc (None, 28, 28, 64)        256       \n",
            "_________________________________________________________________\n",
            "activation_25 (Activation)   (None, 28, 28, 64)        0         \n",
            "_________________________________________________________________\n",
            "conv2d_72 (Conv2D)           (None, 28, 28, 1)         1025      \n",
            "_________________________________________________________________\n",
            "activation_26 (Activation)   (None, 28, 28, 1)         0         \n",
            "=================================================================\n",
            "Total params: 1,028,673\n",
            "Trainable params: 1,028,289\n",
            "Non-trainable params: 384\n",
            "_________________________________________________________________\n"
          ],
          "name": "stdout"
        }
      ]
    },
    {
      "cell_type": "code",
…
